Python/Sentdex-PyTorch/cnn.pth (torch, 251529 bytes, 10 tensors)

conv1.weight f4 [6, 3, 5, 5]
000000 28 99 eb 3c 5d 9c 86 bd e3 1d 04 be f2 7a 70 bd
       0.028759554 -0.06572793 -0.12902026 -0.058711
000010 28 85 25 3d 0e 03 cf bd ed 88 9b bd 50 72 e9 bd
       0.04041019 -0.101080045 -0.07594476 -0.113987565
000020 8c bc 6a 3d 7b 71 2c bb 6d 9f 58 bc a2 be e7 bd
       0.05730872 -0.0026312757 -0.013221604 -0.11315657
000030 3d 06 69 bd df 54 50 be 28 0d 4c 3a c7 79 fc bd
       -0.056890715 -0.20344876 0.0007783943 -0.12327915
000040 63 ce f0 bd 98 23 09 be 78 80 45 be fe 6e 60 3d
       -0.11758115 -0.13392484 -0.19287288 0.05479335
000050 b9 aa 32 3c f7 02 2c be 21 7d 4b be c4 93 4b be
       0.010904961 -0.16798006 -0.19871952 -0.19880587
000060 ed 5b 04 be 8e 99 c6 3c 17 71 ae 3d b9 7e db 3d
       -0.12925692 0.024243142 0.08517664 0.1071753
000070 47 80 aa bd bd 36 27 bd fc c5 67 3d ea 2f 4a 3c
       -0.08325248 -0.040823687 0.056585297 0.012340525
000080 20 a6 b6 3d 1c e7 03 3e 32 5a 4e 3d dd 58 96 bd
       0.089184046 0.1288113 0.050378986 -0.07341168
000090 a1 6f 64 bc 6e 7d 4b 3d 3f 84 df 3c af 5e a6 bd
       -0.01394263 0.049680166 0.02728474 -0.08123528
0000a0 de 23 e3 bd 4b d1 2f 3c 1d 20 86 3d dd e0 a8 bc
       -0.110908255 0.010731052 0.06549094 -0.020615036
0000b0 03 ee 3c bd 13 b2 5c bc 2b b6 5f bb 8e e5 86 bd
       -0.046125423 -0.013470191 -0.003413568 -0.06586753
0000c0 ef 28 a9 3c bc 53 37 bb b3 1e de 3d 12 10 3e bc
       0.020649401 -0.0027973494 0.10845699 -0.011600511
0000d0 f6 9d 0f bc ec 52 fd 3d 8c d7 9d 3b 6d a9 82 3d
       -0.008765688 0.12369332 0.004816955 0.06379972
0000e0 e4 fb 71 bc 59 31 4c 3d e2 ac a9 3d dd 08 4a 3e
       -0.014769528 0.04985175 0.08284928 0.19729944
0000f0 d7 1e b7 bb 99 e4 2c 3d a1 c4 f8 bc 7e 1f dc 3d
       -0.005588393 0.042210195 -0.030367197 0.10748194
000100 16 ee 25 bd 18 0c 94 bc 65 0f dc 3d cd 08 f3 3d
       -0.04051026 -0.018072173 0.10745124 0.11866913
000110 f7 42 c8 3d f5 35 89 3c 84 69 c9 bd 32 af 7b 3d
       0.097783975 0.016749362 -0.09834579 0.061446376
000120 d7 eb 50 3d b4 62 85 3d da 8e b4 bc ec 5b 3f 3e
       0.051006164 0.06512967 -0.022040773 0.18687409
000130 b4 c0 cc 3c 27 15 f0 3d bf 61 a7 3c 05 4d 70 3d
       0.024994232 0.117227845 0.020432351 0.0586672
000140 77 17 5f 3e d1 29 9c 3e d8 d4 a2 3e 04 c9 ea 3d
       0.21786295 0.30500653 0.31803012 0.11464122
000150 fd 82 3a 3e 54 5d 93 3d 99 07 6a 3e 00 c8 83 3e
       0.1821403 0.07195535 0.22854461 0.25738525
000160 8e 93 06 3e bb b1 9c bc 2b cc 1a be 9c ad 35 be
       0.13142225 -0.019127717 -0.15116946 -0.17742008
000170 a0 55 56 be 46 a1 91 bd 3e ee 09 be 5e 79 1c be
       -0.20931101 -0.071108386 -0.13469788 -0.15280673
000180 49 34 93 be ab 50 99 be fa 81 75 be fa fc 51 be
       -0.28750828 -0.29944357 -0.23975363 -0.20506659
000190 da 69 0b be ba 13 69 bd a3 a8 8a 3d 7e 96 ba 3c
       -0.13614598 -0.05690358 0.06770446 0.022776838
0001a0 3c 6a 31 bc 98 09 8d 3d f2 5f dd 3c ba 67 8f 3d
       -0.010828551 0.068865955 0.02702329 0.07002206
0001b0 e9 b6 91 3d 98 55 5a 3d 1b 5a 16 bc 1e 54 b1 3c
       0.071149655 0.053304285 -0.009176756 0.021646556
0001c0 bd 89 f6 3c be 1b 1d 3e 9e 08 07 3e b2 8c 1f 3b
       0.030094976 0.15342614 0.13186881 0.0024345336
0001d0 31 14 4f be 71 1e b8 bd 85 80 e7 3c 6b 18 04 be
       -0.20222546 -0.08990181 0.028259525 -0.1289994
0001e0 2c 91 24 be 0a f5 32 be 4f 2d 50 be 1c d4 23 be
       -0.16071004 -0.17476287 -0.20329784 -0.15998882
0001f0 10 1b 82 bd a4 6b fe bd 6a c8 09 be 84 da 60 be
       -0.06352818 -0.124228746 -0.13455358 -0.21958357
000200 4f 4a 61 3c 41 b5 2a bb 29 e9 3e bd ad 75 ca bd
       0.013750627 -0.0026047977 -0.046609078 -0.09885726
000210 64 c3 db 3d 64 2a 0c 3e 2d 7d d3 3d 2f 80 59 3d
       0.10730627 0.13688046 0.1032661 0.05310076
000220 6b 4c c6 3d 92 92 cc 3d 35 2c 9f 3d ee 35 16 3d
       0.09682544 0.099888936 0.07772104 0.036672525
000230 31 d0 86 3d 01 d5 89 bc 29 4b 05 3d f4 cd 45 3d
       0.06582678 -0.016825201 0.03254238 0.048292115
000240 75 16 a8 bc 99 db 90 3d f6 0d 7a bd 09 25 f4 bb
       -0.02051852 0.07073135 -0.06104847 -0.007450704
000250 17 39 4b 3d dc b8 a2 bd d8 76 99 3c b0 30 43 bd
       0.049614992 -0.079454154 0.018733427 -0.047653854
000260 b7 3b cf bd f3 e3 17 3e 67 02 d8 3d b9 49 83 3d
       -0.101188116 0.1483305 0.10547333 0.06410546
000270 6b 33 ea bd 3f d1 17 be 6e dc 9f 3d 6b f6 81 3d
       -0.114355884 -0.14825915 0.078057155 0.063458286
000280 2b 93 11 be 61 1a 63 be a8 d0 02 be 8e 75 5a 3e
       -0.14216296 -0.22178032 -0.12774909 0.21333906
000290 a6 3c e6 3d d6 90 58 be d5 72 78 be 54 d7 0a 3e
       0.112420365 -0.21149 -0.24262555 0.13558704
0002a0 07 99 54 3e 75 e7 e3 3d 83 2a fa bd 3d c3 6b be
       0.207615 0.11128131 -0.1221514 -0.23023696
0002b0 ab 2a ab bc 89 de 40 3e 89 7c 5b 3d 18 b8 b7 3d
       -0.02089437 0.1883489 0.053585563 0.0897066
0002c0 06 dc cb 3c 9f 49 ed bd d4 99 a9 bd 37 a1 95 3d
       0.024885189 -0.11586308 -0.082812935 0.0730614
0002d0 eb 6e 10 bd 95 cb 1a bd a4 3f 0e bd ad b1 d4 3d
       -0.03526203 -0.037791807 -0.03472866 0.103854515
0002e0 0d 2a 8b 3d 9d 55 f4 bd 15 a9 38 be 9b bb 9a bd
       0.0679513 -0.11930392 -0.1803325 -0.07555314
0002f0 34 d4 5d 3e 1a c9 2e 3e 6a 8e 73 be a1 fc 39 be
       0.2166298 0.17068902 -0.23784795 -0.18162777
000300 30 80 21 3e 68 aa ca 3d 71 93 3f 3e 51 b2 33 be
       0.15771556 0.09895784 0.18708588 -0.17548491
000310 94 ea 44 be 31 b2 fa 3d b6 36 fb 3d e6 a8 34 3e
       -0.1923011 0.122410186 0.12266295 0.17642555
000320 59 4c 49 3c f8 1e a3 bd d3 84 05 be f7 4a 4e bd
       0.012286269 -0.07964891 -0.1303895 -0.05036446
000330 5e 61 06 bb 4e ea f0 bd c4 d9 36 be 73 9a e8 bc
       -0.0020504813 -0.1176344 -0.17856508 -0.02839396
000340 99 97 54 3e 11 21 76 3d 91 bc 20 be 6f 17 64 be
       0.20760955 0.06009013 -0.15696932 -0.22274564
000350 25 ea 8b 3d 7c 71 2e 3e da f3 46 3e d7 b6 7a be
       0.06831769 0.17035478 0.1942896 -0.2448381
000360 f1 4d 78 be a4 72 2f 3e 07 ec 06 3e d8 55 89 3d
       -0.24248482 0.17133576 0.13175975 0.067058265
000370 90 04 31 be 1b c4 64 be df b0 41 3e 69 5d b5 3d
       -0.17286897 -0.22340433 0.18915127 0.08855707
000380 0f 10 cf 3d f3 dd 59 bb b1 13 18 be f1 27 83 3d
       0.10110485 -0.0033243864 -0.14851262 0.064041026
000390 80 8b 71 bd 3f 73 f8 bb 60 48 08 bd 63 8c 02 39
       -0.05897093 -0.007582098 -0.033272147 0.00012450064
0003a0 30 1d 5c 3d 77 34 8d 3d 16 97 9b bc 04 c8 37 bc
       0.053738773 0.068947725 -0.018992942 -0.011217121
0003b0 8b 88 11 39 ca 7c da 3d 93 2c 25 3d a0 17 a3 3d
       0.00013879144 0.10668333 0.040325712 0.079634905
0003c0 44 37 05 be 41 4c ae bd 20 16 c8 bc c0 06 47 3d
       -0.13009363 -0.08510638 -0.024424613 0.04859042
0003d0 79 89 b7 bd de 3f bd bc d2 55 45 3d 14 29 f0 3d
       -0.08961768 -0.023101743 0.048177548 0.11726585
0003e0 6b fd c0 3d 83 fc ac 3d de d0 5e be 6b 31 17 3c
       0.09423336 0.084466 -0.21759364 0.009228091
0003f0 9f 50 1c bd 73 40 02 bd 7c 75 b7 3c 08 59 3d be
       -0.038162824 -0.031799745 0.022394888 -0.18490994

conv1.bias f4 [6]
000000 3a c0 a3 3e 40 d2 4b be 93 45 85 3e e9 83 a0 3e
       0.31982595 -0.19904423 0.26029643 0.3135064
000010 3c 91 90 bd 45 46 87 3e
       -0.07058951 0.264208

conv2.weight f4 [16, 6, 5, 5]
000000 63 4d dc bc cd d4 ba bc 2d 43 fc 3c 8f a5 67 3c
       -0.02689237 -0.02280655 0.03079375 0.014138593
000010 ec 5a 10 bd c0 70 8c 3d 63 25 a3 3d ea 73 37 3c
       -0.03524296 0.06857443 0.07966115 0.01119707
000020 ec 21 17 bd f3 ec 80 3d 18 32 52 bd e4 51 1a 3d
       -0.036897585 0.062951945 -0.051317304 0.037675753
000030 e3 20 33 3d 8c 2f 85 bd 3a a0 90 bd f7 1e 0d 3d
       0.043732535 -0.065032095 -0.07061811 0.03445336
000040 9b 84 19 3c 4e 38 05 bd d0 0a 0d bd fe 6c 03 3b
       0.0093699945 -0.0325244 -0.03443414 0.0020053978
000050 ee 45 9a bc 82 e8 b4 3d ad a8 c7 3d a9 70 88 3d
       -0.018832173 0.0883341 0.09748969 0.06662113
000060 f0 ae b3 3d cb a6 8e 3d 68 9d 7d 3d e7 ba 0b 3e
       0.08773601 0.06965407 0.061917692 0.13645516
000070 f3 0e 86 3c 44 1c c6 3d b8 61 18 3e 34 52 c2 3d
       0.01636455 0.0967336 0.14881027 0.09488335
000080 a7 de 98 3d 6d c6 2c 3d 7e 51 94 3d dd 5d d9 bb
       0.074643426 0.04218142 0.07242106 -0.006633504
000090 81 8d fc 3c 52 cb 25 3c bb 1b aa 3b 8e b8 63 3b
       0.030829193 0.010119276 0.005191294 0.0034747454
0000a0 70 aa 29 3d c5 82 33 3d 31 47 b4 3d 95 31 14 bb
       0.041422307 0.043825883 0.08802641 -0.002261256
0000b0 e3 7a 7c 3d 1a 12 56 3d f7 ae e0 3d c9 5c e1 3d
       0.06164063 0.052263357 0.10970872 0.110040255
0000c0 05 34 90 3d 75 50 01 3d e4 50 92 3a 7c 71 da 3c
       0.07041172 0.03157087 0.0011163023 0.026665442
0000d0 58 f6 ee bd 18 40 ba bd 5c c8 c6 bd bb 04 8c bd
       -0.1166808 -0.09094256 -0.09706184 -0.0683684
0000e0 52 45 d3 bd ab 73 64 bd 39 dc 6a bd b8 8e af bd
       -0.10315956 -0.055774372 -0.057338927 -0.08572143
0000f0 4d fb 13 bd f9 2b 41 bd 2d 87 df bc 63 18 aa ba
       -0.03612833 -0.047161076 -0.027286137 -0.0012977239
000100 35 f5 cd bd f6 d1 51 3d b4 35 c1 bb 6b d4 89 bd
       -0.10056535 0.051225625 -0.0058962945 -0.06729969
000110 16 52 c8 bc dc 23 b2 3c 66 4c 95 3d 01 f5 c3 3b
       -0.024453204 0.021745615 0.072899625 0.0059801345
000120 a5 25 ab 3c 73 49 56 bd 22 22 92 bd 0c 69 d0 3d
       0.020891974 -0.05231614 -0.071354166 0.10176286
000130 39 4b 9a 3c f2 89 c3 3d c2 4f e1 3c 31 16 83 3d
       0.018834697 0.09547795 0.027503852 0.06400717
000140 82 03 ad 3d a6 e5 54 bd 1b d5 3f 3d ab 38 23 3d
       0.08447935 -0.051976822 0.046834093 0.039848965
000150 55 61 5e 3d c4 92 a3 bd 31 83 3d 3d 10 49 a2 bd
       0.05429204 -0.07986978 0.046267692 -0.07924092
000160 a6 43 21 bd 53 96 ea bc 87 71 ef 3c 79 d8 29 bd
       -0.039371155 -0.028636133 0.029228939 -0.04146621
000170 13 e7 75 3d 49 9d 58 bd 13 a9 a8 3c 39 e4 09 bd
       0.060034823 -0.052884374 0.020588433 -0.033664916
000180 59 f0 64 bd 34 02 e1 bc 26 00 91 3d c8 b6 18 bd
       -0.055893276 -0.02746687 0.070801064 -0.03728369
000190 be ca 4e 3d f0 13 f5 3d be 5d 15 3e 2e 0b 12 3e
       0.05048632 0.119666934 0.14586541 0.14262077
0001a0 95 f5 52 3d 09 62 05 3e 8e 3f c9 3d 7e 8a 3c 3c
       0.051503737 0.13025679 0.09826575 0.0115076285
0001b0 e8 12 a2 3d 33 e1 e9 3d 25 aa b9 3d 08 b7 9d 3b
       0.07913762 0.114199065 0.090656556 0.004813079
0001c0 cd 82 09 3c a2 3f 33 3d 3c d6 9d 3d 13 aa 28 bc
       0.008393002 0.043761857 0.077068776 -0.010294455
0001d0 67 31 cd bc f2 c4 f9 bc 3f d7 c9 3d 2c 1c 20 bd
       -0.025047971 -0.030489419 0.09855508 -0.039089367
0001e0 bc 1e 95 3d de 88 26 bd be 82 d3 3d 00 7e 6f 3d
       0.07281253 -0.04065787 0.103276715 0.058469772
0001f0 9c 9d 84 3c e7 7c 2d 3c 60 b4 a9 3d 73 31 70 bd
       0.016188435 0.010588861 0.08286357 -0.05864091
000200 14 5d 7b bd 2d e6 c7 3d f9 9a a4 bc c9 96 b2 3b
       -0.061368063 0.097606994 -0.020093428 0.005450104
000210 8e c4 c8 bc 1b f3 1f bd 99 76 40 bd bd c8 7e 3d
       -0.024507787 -0.039050203 -0.046988104 0.062203158
000220 86 60 a7 3c 18 47 de 3c 0c 4f 37 bd 11 a4 7c bd
       0.020431768 0.02713351 -0.04475312 -0.061679903
000230 d4 a0 6f 3d e0 50 21 bd ff d6 a7 bc 6a be 0c bd
       0.058502987 -0.03938377 -0.02048826 -0.03436128
000240 67 70 4d bd 11 45 0f 3d 85 a8 ca 3d 7d 32 09 bc
       -0.050156023 0.034977976 0.09895424 -0.008373854
000250 e2 ba a7 3c 28 ff dd 3d 41 44 4d bc c9 05 91 3d
       0.020474855 0.10839683 -0.01252848 0.070811816
000260 ba 67 94 3d 54 d5 e0 3c 5a 8d 7f bc 62 1e 55 bd
       0.07246347 0.027445473 -0.015597666 -0.05203093
000270 3a 69 46 3d 58 14 47 bd b3 d7 57 bd 7e 6e 54 3a
       0.048440196 -0.048603386 -0.05269594 0.0008103623
000280 49 da 80 bd 91 1c 8b 3c d8 be 71 bd 35 4e aa 3d
       -0.062916346 0.016981395 -0.059019893 0.08315698
000290 e9 e9 be bd 11 d0 95 bc 51 a3 7d 3d 90 76 78 bc
       -0.093219586 -0.01828769 0.06192333 -0.015164986
0002a0 17 d0 32 bc 1f 08 dc bd 77 0c ca bd 5d b9 fa bd
       -0.01091387 -0.107437365 -0.09865659 -0.122423865
0002b0 ae c1 a5 bd ad 51 92 bc 7a 64 d6 bd d9 65 15 bd
       -0.08093582 -0.017861212 -0.10468383 -0.036474083
0002c0 75 69 9c 3d 56 fe 81 3c 6f b2 d7 bc a1 3a 25 3b
       0.07637302 0.015868347 -0.026330201 0.0025211948
0002d0 0e 5d b2 3d 66 ac 30 bd 6a 77 10 3b f0 8c 1c 3b
       0.08709155 -0.043133162 0.0022043833 0.0023887716
0002e0 21 18 b9 3d e8 46 58 3d ea b0 a6 3d 5d 79 f3 3d
       0.09037805 0.052801996 0.081392124 0.118883826
0002f0 d8 19 1d bd 8d ee fa bc eb d3 0f 3e a7 97 02 3d
       -0.038354725 -0.030631328 0.14045684 0.03188291
000300 d7 88 ae 3d 49 80 43 bd 34 7a b8 bc fe 9e 95 bd
       0.08522194 -0.047729764 -0.022519208 -0.07305716
000310 fc 18 c3 bc 4f fe a6 bd 8d e4 89 bd 0f bd 1e be
       -0.023815624 -0.08153974 -0.06733046 -0.15501808
000320 82 07 51 bd c9 a0 8c 3d 68 b2 45 bb f4 d8 53 3d
       -0.05103255 0.06866605 -0.0030166153 0.051720574
000330 b9 34 28 3e ec 75 90 bd 22 46 d0 3d d8 a6 44 3d
       0.16426362 -0.07053742 0.10169627 0.048010677
000340 5e 7e 86 bc a4 01 57 3e 69 d1 a6 3d 33 b6 36 3e
       -0.016417678 0.2099672 0.081454106 0.17842941
000350 03 64 1f bd ee 1b 2c bc 42 f5 f8 3d cc 60 a9 3d
       -0.038913738 -0.010504706 0.12156154 0.08270416
000360 f5 5d 7b 3c 53 42 20 3d 1a 5f 01 3e 37 e7 3d 3e
       0.015342225 0.03912575 0.12633935 0.18545233
000370 83 b9 42 3d fc da ee bd 9f 02 2d bc ff 18 28 bd
       0.0475402 -0.11662862 -0.010559707 -0.041039463
000380 3f ec 9e 3d 7d 9f 71 bc 81 11 35 bd 08 22 42 bd
       0.07759904 -0.014747498 -0.044206146 -0.047395736
000390 e5 5f 9c bd 7d b5 4c bd ae 51 59 3d e3 9a 47 3d
       -0.07635478 -0.04997777 0.05305641 0.048731696
0003a0 c6 71 d0 3a 34 88 1b bc 37 75 ee bc 55 03 0a bd
       0.0015903048 -0.009492923 -0.029108627 -0.033694584
0003b0 ea 9d 0e bd 9d 29 d9 bc 05 0c 40 bd d5 2b 7b bc
       -0.034818567 -0.0265091 -0.046886463 -0.015330275
0003c0 ca ad 17 3d 26 9b a3 bd c4 7b 7d 3d bb 60 5f bd
       0.037030973 -0.079885766 0.06188561 -0.05453561
0003d0 c0 d7 15 bd 97 43 07 3c 90 f1 ba 3d bf f4 44 3c
       -0.03658271 0.008255861 0.09128106 0.012021243
0003e0 d7 11 ed 3d 3c 08 51 3d c4 8c 8b 3d 38 b3 a5 3d
       0.11575668 0.051033244 0.06813958 0.08090824
0003f0 80 ef 5f 3c dd f8 f7 3d f8 86 45 3d b7 f2 ca 3d
       0.013667941 0.12108014 0.04822442 0.099095754

conv2.bias f4 [16]
000000 f7 f7 fd 3d ea 66 bf bd 54 d0 2a be ed 58 3e be
       0.12400811 -0.09345801 -0.16681033 -0.1858861
000010 79 8f cf 3e 6e 4e 51 3d 3b 80 3b be 69 0d 6f be
       0.40539148 0.051100187 -0.18310635 -0.2334496
000020 09 fb 11 bd dc 4b 42 be f6 11 2f bd 08 a1 37 be
       -0.035639796 -0.1897425 -0.04274174 -0.17932522
000030 b6 d6 ea 3b 3c 9a 05 3e 77 bf 61 3d 9f 3a 2d bd
       0.007166709 0.13047117 0.055114236 -0.042292234

fc1.weight f4 [120, 400]
000000 b7 79 70 3c 81 e6 07 bd 83 0e 19 bc 49 e8 d8 bc
       0.014677457 -0.03317881 -0.009341839 -0.02647795
000010 17 fc 2d bd 13 b3 c8 3c dd d2 06 3c f7 1a 46 bd
       -0.04247674 0.024499452 0.008228985 -0.04836556
000020 16 7e 1b bd 2c f0 2f bd 27 cf 47 bc c8 13 e7 bc
       -0.03796204 -0.042953655 -0.012195385 -0.028207675
000030 b0 39 19 bd a8 78 a8 bc 52 26 84 3c 92 ac 08 bd
       -0.03740853 -0.020565346 0.016131554 -0.0333677
000040 7c da 0b 3d bf 12 a2 bb 9b 94 cc 3c 58 7a 24 3d
       0.03414391 -0.0049460824 0.024973204 0.04015574
000050 3d e3 29 bd 0e 14 05 bd a6 3d 2e 3d 9d 43 09 bd
       -0.041476477 -0.03248983 0.04253926 -0.033511747
000060 f3 da 3f bc 02 c8 8c bc bc f1 7a bc 18 ff f9 bc
       -0.011709916 -0.017185215 -0.015316423 -0.030517146
000070 6c 1a 93 bc 6e a2 ad 3c af e7 15 3d 1b 5e 17 bd
       -0.017956935 0.021195617 0.036597904 -0.03695498
000080 cc d4 9e 3c 3b 4b 37 bd 4c 1f 32 3d 43 07 16 bd
       0.019388579 -0.04474948 0.04348688 -0.03662802
000090 78 ec 8b bc 4d 64 ad bc a2 d9 0e bd 39 f0 e9 bc
       -0.01708053 -0.021165991 -0.03487552 -0.02855693
0000a0 7e 4c 2b bd f5 6b 4f bd 17 4f 2a 3d a8 5f 0b bc
       -0.041820996 -0.050640065 0.041579332 -0.008506693
0000b0 98 54 9b 3c df 2d 3a bc f7 ee 00 3d 18 fd 67 3c
       0.018961236 -0.011363476 0.031477895 0.014159463
0000c0 55 08 98 bb 32 51 08 3d f5 ea 22 bb 18 fc 09 3c
       -0.004639665 0.03328056 -0.0024859284 0.00842192
0000d0 72 1c 2f bd 26 e9 0a 3d 42 5d 42 3c d9 8e 2a bd
       -0.042751737 0.033913754 0.011863055 -0.041640136
0000e0 0f ea cc 3c 65 c6 88 3c ac 53 aa 3c b2 59 41 3d
       0.025013952 0.016696164 0.020791851 0.04720468
0000f0 dd cd ce bc 07 13 43 3c 52 a2 de bc 55 f2 c2 3c
       -0.025244648 0.011906392 -0.02717701 0.023797194
000100 4b 02 b1 3c a5 51 be bc 14 ab 1e 3d 17 bf e9 3c
       0.021607539 -0.02323229 0.03873737 0.028533502
000110 76 43 0f bc 19 a4 fd bc d7 bb 28 bd 3e b8 c2 bb
       -0.008744111 -0.030962037 -0.041194763 -0.0059423735
000120 5b 80 15 bd 2d 09 f4 bc 16 13 c0 bc 17 38 4b bd
       -0.036499362 -0.029789532 -0.0234466 -0.04961404
000130 c9 e0 c9 bb 02 21 3a bb f9 68 d6 bb 5b 2c c6 bb
       -0.0061608297 -0.0028401022 -0.0065432754 -0.006047768
000140 bb 27 e4 bb d6 92 05 3d 90 9a d5 3c c4 fc 30 bd
       -0.006962744 0.032610737 0.026074678 -0.043209806
000150 99 f9 fd bb 34 14 48 bd a4 6b 19 3d 50 41 df 3c
       -0.0077507016 -0.048847392 0.03745617 0.027252823
000160 e2 42 e5 3c 5d e9 15 3d db f1 2b 3d 39 69 91 bc
       0.027985994 0.036599506 0.0419787 -0.01775037
000170 e0 7a 25 bd 6b 86 0c 3d 31 ce bb 3b c9 53 20 3d
       -0.040400386 0.03430788 0.005731367 0.039142404
000180 4e d5 2e bc 35 8b fb 3c bc 18 f4 bc 4b ac de 3c
       -0.010670973 0.030706028 -0.02979695 0.027181765
000190 d6 d1 38 bd 4c 24 0a 3c b2 58 34 3d 53 6c d2 3a
       -0.04512199 0.008431505 0.0440299 0.0016054012
0001a0 63 76 01 bd 43 95 dc 3c 26 65 24 3d 03 70 b5 bc
       -0.031607043 0.026926642 0.040135525 -0.022148138
0001b0 3e b7 36 3d 17 3c 37 3d d6 f3 fa 3c cd a9 43 3c
       0.044608347 0.04473504 0.030633848 0.011942339
0001c0 47 bb 25 3b 77 05 64 3c fa 5d 46 bd 32 2e 10 bd
       0.0025288628 0.013917319 -0.048429467 -0.035200305
0001d0 71 72 20 3d 5f 82 01 3d 03 f8 05 3d 72 f9 56 bd
       0.03917164 0.031618472 0.032707226 -0.052483983
0001e0 96 d7 90 3c b5 c2 32 bd 8d 4b 61 3b 37 5d a3 3c
       0.017680924 -0.04364272 0.0034377307 0.01994191
0001f0 a8 73 85 bc 9b 5c 04 bd b8 f2 43 ba 51 e6 d0 ba
       -0.0162905 -0.032314878 -0.00074748276 -0.001593778
000200 38 af a4 bb 74 3c 6a 3a bc 6b c2 3c ca 45 d3 bc
       -0.0050257705 0.00089354 0.023733012 -0.025790114
000210 24 50 3b 3d 40 dd 21 bc 09 f6 ab 3c c2 61 39 bd
       0.045730725 -0.00987941 0.020991342 -0.045259245
000220 7d e2 9b bc 50 4d ca bc d3 ce 13 ba ce 42 7b 3c
       -0.019028896 -0.024695069 -0.0005638424 0.015335752
000230 ff 2a 1e bd 05 da 49 bd 0d 23 3b ba 7e d5 bf 3a
       -0.038615223 -0.049280185 -0.0007138707 0.0014635769
000240 4c b3 36 bd d1 6c 93 bc 57 1f 99 bb 3b 76 37 bb
       -0.044604585 -0.017996224 -0.0046729255 -0.0027994055
000250 10 e6 2c bd bb d4 25 bd 81 57 8f 3c 5c 4a 0f bd
       -0.042211592 -0.04048608 0.01749778 -0.034983024
000260 c1 9a 35 3b ef d4 8c bc 26 90 07 3c 31 3c 16 bd
       0.0027710649 -0.017191378 0.008274114 -0.036678497
000270 32 de 4c 3c 4d ca b4 bb 66 84 1a 3d 03 19 51 3a
       0.012504147 -0.00551728 0.03772392 0.00079764443
000280 7e 1e 69 ba 2a 91 a1 bc 26 7e c3 bc 7a da fc 3c
       -0.00088927883 -0.01972254 -0.023863863 0.030865896
000290 fe 4e 8c 3a 40 64 cb 3c 4a b5 43 bb 48 91 15 3d
       0.0010704694 0.024828076 -0.0029862695 0.036515504
0002a0 b0 70 37 bd 3f 4e 31 bc a5 b4 65 bc cc 81 1e bd
       -0.0447852 -0.010821878 -0.01402012 -0.038698003
0002b0 a3 73 82 3c 41 26 0a bd 89 60 c4 bb cc 2e 9e bb
       0.01592428 -0.033727888 -0.005992953 -0.004827356
0002c0 ef 2a 88 bc 73 28 86 3c cd 80 d1 38 af d3 02 3d
       -0.016622035 0.01637671 9.9898876e-05 0.03194016
0002d0 7d ad 1d bd 99 a7 48 3d 21 50 28 3c 11 b5 a1 bc
       -0.03849553 0.04898796 0.0102730105 -0.01973966
0002e0 8a 28 5f bb 0c 0a 91 bb dc 6d a6 3c f3 81 56 bb
       -0.0034051263 -0.0044262465 0.020316057 -0.0032731264
0002f0 ce 33 08 3d 31 1a 16 3c f8 8b fa 3c 46 aa 86 3b
       0.03325253 0.009161518 0.03058432 0.0041096536
000300 6c ee 4e 3b d4 8f 02 bd 6c bf e4 3c 2e 38 85 3c
       0.0031575216 -0.031875446 0.027923308 0.01626214
000310 54 9b f2 bc f0 14 34 bd eb 54 17 bc 21 31 10 3d
       -0.029615082 -0.04396528 -0.009236555 0.035203103
000320 66 84 cb bc a6 28 fb 3c c8 38 ea 3c 89 36 26 3d
       -0.024843406 0.030659031 0.028591529 0.040579353
000330 6e 91 a1 bc 35 fe 7c 3b b1 43 89 bc 3a 97 85 bc
       -0.019722667 0.0038603668 -0.01675591 -0.016307462
000340 90 21 16 bc 37 2a 1c bd 50 7f 4b bd f4 71 0d bd
       -0.009163275 -0.038126197 -0.04968196 -0.034532502
000350 1c 22 25 3c 94 43 56 bd ff f7 74 bc e2 df 09 3d
       0.010078933 -0.05231054 -0.014951705 0.033660777
000360 4a e1 07 3c bf a3 0a 3d 58 93 46 bd 54 54 1d bb
       0.008293459 0.033847567 -0.04848036 -0.0024006562
000370 1b 15 b5 bc 56 0e c2 3c 82 52 b6 ba e2 fb ef bc
       -0.02210479 0.023688477 -0.0013910087 -0.029294912
000380 cc 4f 4e 3c 17 d5 40 bd b5 0f 02 bd 79 0c e1 3c
       0.012592267 -0.04707822 -0.03175326 0.027471768
000390 ab 03 11 3d b9 43 02 bc ef 53 32 3b d4 6f 21 3d
       0.03540389 -0.007950717 0.0027210673 0.03941329
0003a0 b2 be 16 3c 2c 0a 2a bd a1 1c 00 bd b4 0d 04 bd
       0.009200739 -0.041513607 -0.031277303 -0.03223963
0003b0 cc c8 c1 bc 4d df 31 3d 3c 96 06 3d f2 c4 88 3c
       -0.023655318 0.043425847 0.03285812 0.016695473
0003c0 20 10 e2 ba ec c1 0b bd c8 e1 32 bb 87 f5 95 bc
       -0.0017247237 -0.034120485 -0.002729522 -0.018305553
0003d0 ab fa 22 bd 72 16 2c 3d 10 2e ed bc cb e5 ed 3b
       -0.039789837 0.042013593 -0.028952628 0.0072600595
0003e0 83 51 20 3d 6d fd 3f 3d f0 9f 22 bd 93 5d d5 3c
       0.039140236 0.046872545 -0.03970331 0.026045596
0003f0 01 e0 f9 3b ea 59 92 3c b4 ad 46 bc 99 d9 78 3b
       0.0076255803 0.01786514 -0.012126375 0.0037971495

fc1.bias f4 [120]
000000 e7 cb 1f bc d4 7e 0d 3d 7a f7 f4 3c b7 69 6b bb
       -0.009753204 0.03454478 0.029903162 -0.0035921165
000010 fd 03 2f bd d3 6b 00 3d 48 2b 49 3c 45 1e 36 3d
       -0.042728413 0.03135283 0.012278385 0.04446246
000020 34 31 9c 3c d7 74 f8 3c 22 cb 9d bc 28 39 05 3d
       0.01906643 0.030329151 -0.0192619 0.03252521
000030 97 b8 74 3d ee b9 08 3b 87 fa 3a bc 05 5d cc bc
       0.05974635 0.0020862776 -0.011412269 -0.024946699
000040 09 bd ab bc b7 3f 0c 3d 21 1b ce 3c 6a 48 f1 bc
       -0.020964162 0.03424045 0.02515942 -0.029453475
000050 4e dc 43 3d cd 9c 47 bd 53 81 fd 3b 75 aa e7 bc
       0.04781752 -0.04873352 0.007736364 -0.028279522
000060 2d a5 8e 3d 46 74 98 3c 0e 6d 12 3d fb 0e 8e bc
       0.069650985 0.018610131 0.035748534 -0.017341128
000070 02 cb 3d 3c 53 1c ba 3c f3 45 90 3d 53 83 b1 bc
       0.011584045 0.022718584 0.07044592 -0.021669066
000080 5f 0b 66 bb dc 50 6b bd fb 29 9c 3c 1e 09 a6 3c
       -0.0035101993 -0.05745016 0.019062987 0.02026802
000090 b8 8a e7 3c cd 93 e2 3c 3d 29 2c bc ee 49 35 bd
       0.028264388 0.027658368 -0.010507879 -0.044259958
0000a0 b9 89 26 3c 2f 2b 1a 3e 7f 6a 53 bd 27 3a f9 bc
       0.010164672 0.15055536 -0.051615234 -0.030423237
0000b0 64 a9 b0 bc 7b 3e 4f bb db e7 df 3c e7 60 93 bb
       -0.021565147 -0.0031622935 0.027332237 -0.0044976356
0000c0 0a d5 4f bd fe 1c b8 bc 8b cb 0d 3c 6a 21 1b 3d
       -0.05074028 -0.022474762 0.008654485 0.037873663
0000d0 cb 3b f3 3b a2 60 82 3d 94 87 35 bc 3c 7c 5d bc
       0.0074228994 0.063660875 -0.011079688 -0.013518389
0000e0 9f a8 ad bd f1 62 e8 3b f3 e6 be 3d 85 7a 6d 3d
       -0.084794275 0.007091873 0.09321394 0.05797817
0000f0 0d 80 02 3c 8c d6 20 3c f3 ec 11 bc 14 01 bc bc
       0.0079651 0.009816777 -0.008906591 -0.022949733
000100 75 78 4a 3d 8c 62 a0 3c 1b f3 46 bc 6e 9a 7c 3d
       0.049431283 0.01957824 -0.012142922 0.061670713
000110 60 b8 22 bc 47 9d 48 bd 64 52 8b bd bf 47 1d bd
       -0.009931654 -0.048978116 -0.06802824 -0.0383985
000120 a0 9e 51 bd d9 58 38 3c 49 47 09 3d fd 1a 16 bd
       -0.051176667 0.011251652 0.03351525 -0.03664683
000130 11 d3 02 bd ec 3a c7 3b 9d 75 b0 3d 0d 83 9a bc
       -0.03193957 0.006080022 0.08616183 -0.018861318
000140 b4 2e ea 3b 51 6d 56 3d 15 1e ba 3d d1 01 ac bd
       0.0071466807 0.052350346 0.09087769 -0.08398784
000150 24 84 c4 3c e2 b4 81 bb 03 67 eb 3c a2 f3 c3 bb
       0.02398879 -0.0039583305 0.028735643 -0.005979971
000160 52 bc f2 bb f0 5b 34 bd 6f b8 11 3d 39 3a 37 3d
       -0.0074077034 -0.04403299 0.03557628 0.04473326
000170 fe 26 f2 bc 58 b3 3d bd a4 5e 5c bc 91 fa 30 3d
       -0.029559609 -0.046313614 -0.013450298 0.04320771
000180 23 c5 2d bc 28 c2 02 bd f3 b4 95 bc f0 94 65 3c
       -0.010606083 -0.031923443 -0.01827476 0.01401256
000190 4c ab 54 3d ab 92 c2 3a 1c 0a 9f 3d 4b 28 f8 3b
       0.051921174 0.0014844736 0.077656 0.0075731627
0001a0 ea 33 4d bd 25 16 8a 3d 90 97 1b bd 85 4f 1c bc
       -0.050098337 0.06742505 -0.03798634 -0.009540443
0001b0 17 8b 3b 3c f3 81 dd 3c 0f 1d d1 3d fc 88 96 bd
       0.011446736 0.027039504 0.102106206 -0.073503464
0001c0 bb 8b bf bc 79 b3 74 3d 40 ee 48 3d 16 26 84 3d
       -0.023382058 0.05974147 0.049055338 0.06452577
0001d0 9e f3 12 bb 53 90 87 bc aa c6 30 3b 4f 24 9f bc
       -0.002242304 -0.016548311 0.0026973882 -0.019426493

fc2.weight f4 [84, 120]
000000 4d 81 8e bd 6c 7a 73 bd 57 ad 9b bd 25 b9 94 3d
       -0.06958256 -0.059442922 -0.07601421 0.07261876
000010 96 e1 9f bd ae 5d b5 bd 46 e6 20 bb 85 64 ce 3d
       -0.07806699 -0.088557586 -0.0024551316 0.10077766
000020 21 a9 97 bd 3f 80 ed bc e9 44 87 3d 02 ae 2b bb
       -0.07405306 -0.028991817 0.066049404 -0.0026196246
000030 1b 74 8b 3d 22 91 4f bd 12 9a dd 3d 36 52 12 bd
       0.06809255 -0.05067552 0.10820402 -0.035722934
000040 56 86 4e bd a4 98 84 bd 9f 63 e5 3d dd fa bb bd
       -0.05042108 -0.064744264 0.11200642 -0.09178708
000050 f9 a6 f1 ba 0e 0b 4d 3c 19 34 5d 3d 9c 54 d8 3c
       -0.0018436603 0.012514843 0.054004762 0.026407532
000060 69 c9 04 bb f7 9a 8d bd 7a 67 8a bd 41 60 65 bc
       -0.0020261651 -0.06914323 -0.06758018 -0.0139999995
000070 71 e0 05 3d 38 37 8b bd ff 90 9a 3d 78 08 36 bd
       0.032684747 -0.067976415 0.07547187 -0.04444167
000080 03 48 0a bd 06 fc 98 bb 8a 99 84 bd 1b 30 9f 3d
       -0.033760082 -0.0046687154 -0.06474598 0.07772847
000090 42 e9 de 3b 8f 3d b8 3b 55 9d 15 bc 18 43 c3 bc
       0.006802709 0.0056225727 -0.009131749 -0.023835704
0000a0 7c bd 3c bc 2e 67 24 3e 02 74 90 3d 4f a5 b9 bd
       -0.011519786 0.16054985 0.07053377 -0.09064733
0000b0 53 a1 06 3c f0 5e 8d bd fc 3f 8e 3d 6e 35 5c bd
       0.008217174 -0.069028735 0.06945798 -0.053761892
0000c0 5d b9 6c bd 57 c1 41 bd ed c4 53 3d e1 7d 3a bb
       -0.057793964 -0.047303524 0.051701475 -0.0028456377
0000d0 ad 3a a0 3d 31 71 b8 bc fc dc 3d 3d 67 e4 17 bd
       0.078236915 -0.022514911 0.046353325 -0.037083056
0000e0 cb b9 c1 bc 55 24 e0 3c 93 61 86 bd d2 09 f8 3d
       -0.023648163 0.027361074 -0.065615796 0.12111248
0000f0 41 44 0b 3e 92 8a 4d 3c 73 34 03 3c b1 c2 a5 bc
       0.13600256 0.012545245 0.00800811 -0.020234438
000100 dd 2c 98 bd 62 14 07 3d 95 4e ab 3c c0 4c 06 3e
       -0.07430432 0.032978423 0.020911494 0.13115215
000110 f8 9a a8 bd 89 41 30 3d 1e 3b f3 bc d6 17 c2 bd
       -0.08232683 0.04303125 -0.029691275 -0.094772026
000120 89 ae 40 bd f5 a4 53 bd 06 86 4a bd 34 6a a7 3c
       -0.04704145 -0.051670987 -0.04944422 0.020436384
000130 38 a5 cf 3d de c7 23 bd 06 27 d6 bb 3c 89 4f bd
       0.10138935 -0.03998553 -0.0065354137 -0.050667986
000140 5f 28 9f bd 74 aa 6f 3d ff 0c e7 3d c2 63 35 3d
       -0.07771372 0.058512166 0.11281776 0.04428459
000150 59 fd ad bb 36 e3 c8 bc f3 a8 7c bd 23 06 e5 bb
       -0.0053097424 -0.024522405 -0.06168456 -0.006989257
000160 5a f8 9b 3d 42 68 89 3d 89 06 4f bd de 05 ed 3c
       0.07615729 0.06709339 -0.05054334 0.028933462
000170 09 a2 a9 3c 97 5e 19 bc 37 e0 de 3d b7 41 ed 3d
       0.020707147 -0.009360931 0.10882609 0.115848
000180 05 25 b0 3d 5b c0 37 bd 36 a0 37 3d fb 5f 00 3e
       0.08600811 -0.04486118 0.044830523 0.12536614
000190 e5 a0 98 3d 99 b1 89 3b bd a8 86 3d 21 7e 8d 3d
       0.07452563 0.0042020795 0.06575153 0.06908823
0001a0 37 7b f4 bc 73 5d ad 3c e6 b9 0d be c4 e8 70 bd
       -0.02984391 0.021162724 -0.13840446 -0.058815733
0001b0 9e c4 a9 3d df ec 59 bd c0 5b 55 3b 82 19 63 bd
       0.08289455 -0.053204414 0.0032555908 -0.055444248
0001c0 4b e9 6d 3d 24 c1 1b 3d 94 e9 62 bd 70 1b a2 bd
       0.058083814 0.03802599 -0.05539854 -0.079153895
0001d0 84 7a 8a 3d 0d 93 4d 3d 38 21 d8 ba 16 7c a1 3d
       0.06761649 0.050189067 -0.0016489392 0.07884996
0001e0 9f 02 09 bc b2 0f b6 3d 06 9e d3 bc 91 f0 9d 3b
       -0.008362441 0.088897124 -0.025832187 0.0048199375
0001f0 11 b1 0b 3d 1c 98 5a 3d 5d bd b5 3d 9e 05 52 3c
       0.03410441 0.05336772 0.08874009 0.012818722
000200 e6 69 e4 bb 1e 5d b0 3c 53 93 08 bd 0f 5d 96 3c
       -0.006970632 0.021528777 -0.033343624 0.01835492
000210 c5 8a 86 3d 46 41 45 bc 25 b8 a0 3d be d0 88 bd
       0.06569437 -0.012039488 0.07847623 -0.066804394
000220 d6 5f 4e bd b4 d3 89 3c 4b 2f 3f ba d9 a9 60 3d
       -0.050384365 0.01682458 -0.0007293119 0.05484948
000230 17 6e c4 3b cd de 17 3d 10 ba d5 ba 4c 85 9c 3d
       0.005994569 0.037077714 -0.0016306061 0.07642612
000240 2e 6a 15 3c e3 fe 98 bd 35 19 bd bc eb f0 a3 bd
       0.0091195535 -0.07470491 -0.023083309 -0.08004936
000250 c7 28 20 3c e9 7e 98 3b 45 8d 5f 3d b0 82 8a bd
       0.009775347 0.0046538007 0.054578084 -0.06763208
000260 dd 9f 36 3d 95 c2 7d 3d 54 26 03 bb af 84 34 3d
       0.04458605 0.061953146 -0.002001186 0.04407185
000270 98 34 fd 3c 05 b1 a7 bd 63 bd 09 3d bc de 67 3c
       0.030908868 -0.08188061 0.03362788 0.014152225
000280 8e a3 9f bd a3 e4 0a 3d 00 16 4e 3d 0f a1 0f 3d
       -0.077948675 0.03390945 0.05031395 0.035065707
000290 9d 8e 05 3c 99 70 17 3d 8c cb 22 3d c8 5a 8c bd
       0.008151677 0.036972616 0.0397449 -0.06853253
0002a0 b8 94 50 bd 74 d1 91 bd 0c 33 11 3d 26 7c b7 bd
       -0.05092308 -0.07120028 0.035449073 -0.08959226
0002b0 ee 43 34 bd ae dd 88 3d 4b 7e 9d 3d 53 eb 90 bd
       -0.044010095 0.06682907 0.07690104 -0.070761345
0002c0 aa ca 9e bd ce 73 57 3d bd f3 ae 3c 8c be ce bc
       -0.07753499 0.052600674 0.021356458 -0.025237344
0002d0 8f d1 c3 3d f1 5a ab 3d 27 ce 68 bd 55 f7 5e bd
       0.095614545 0.08366955 -0.056837227 -0.054435093
0002e0 54 18 e6 bb 92 a4 f4 3c c9 9c ee bc e5 8d e3 3b
       -0.007021943 0.02986363 -0.029127495 0.0069444054
0002f0 85 09 8a bc 36 04 87 3d 01 6b 27 3d 5c 3d f5 3a
       -0.016850242 0.065926 0.04087353 0.0018710303
000300 f3 ec 7c bd 69 4c 63 bd 4a f5 95 3d da b2 8b bd
       -0.06174941 -0.055492792 0.07322176 -0.068212226
000310 ab a2 39 bd 28 7d 84 bb 3e d8 82 3c 38 fa a7 bc
       -0.045321148 -0.00404324 0.015972253 -0.020505056
000320 d5 63 93 bd dd 56 e8 3c 5c 8b 99 3d d0 89 70 3d
       -0.07196776 0.028361732 0.07497284 0.05872518
000330 fb 09 09 bd 25 f0 22 bd 59 d2 33 bc 55 91 77 bd
       -0.033456784 -0.0397798 -0.010975444 -0.060441334
000340 f4 24 9f bd 62 b6 b2 bd 33 be c5 bc c5 1c 87 bc
       -0.0777072 -0.08726193 -0.024138546 -0.01649321
000350 c5 f9 4e bd 20 5f e8 3c 3b 07 b5 bd a8 78 a3 bd
       -0.050531168 0.028365672 -0.0883927 -0.07981998
000360 f1 65 b5 bd 55 59 13 3c fa c3 66 3d f4 ec 0d bc
       -0.088573344 0.008993466 0.05633924 -0.008662451
000370 cc df b7 3d 6f 95 82 3c c7 f7 2f bd 44 a1 7b 3d
       0.08978233 0.015940396 -0.04296091 0.06143309
000380 97 98 87 3d df 52 93 bd ed 64 af 3d 9d 1c aa 3d
       0.06620901 -0.07193541 0.08564172 0.08306239
000390 1c ed 8f bd c3 58 88 bd db 3e 5a bd 61 7e 77 3c
       -0.07027647 -0.06657555 -0.0532826 0.015105815
0003a0 91 74 b7 bc 8d fe 22 3c 64 aa 06 bc 86 8c 8b bd
       -0.02239445 0.009948385 -0.008219335 -0.06813912
0003b0 08 57 34 bd db 8e 67 3d 27 80 3b bd 1c d2 19 3d
       -0.044028312 0.056532722 -0.045776512 0.03755389
0003c0 ab af 9f bd 18 f7 74 bc 91 b3 0c 3d e2 59 49 3d
       -0.07797178 -0.01495149 0.034350935 0.049157985
0003d0 c2 d9 cb bc fe 28 1c bd d9 78 85 3d 22 18 03 3d
       -0.024884108 -0.03812503 0.065171905 0.032005437
0003e0 c4 ba 86 bd 21 18 99 bd 59 1c b8 3d bd 97 89 3d
       -0.065785915 -0.07475305 0.08989782 0.06718395
0003f0 44 68 73 bd 39 67 00 bd f1 f1 c5 3b d9 b7 85 3d
       -0.059425607 -0.03134844 0.0060408046 0.06529207

fc2.bias f4 [84]
000000 82 c1 92 3d 1f 68 87 bd 6e 8c 38 3d e9 62 92 3c
       0.07165815 -0.066116564 0.0450558 0.01786943
000010 a5 e6 5d bd 9d 06 80 b9 fd fc ac bd 97 2f bf bc
       -0.054175038 -0.0002441899 -0.08446691 -0.023338122
000020 8e 54 af bd 71 7c a7 bd c4 9b dc 3d 12 a5 b5 bd
       -0.085610494 -0.08178032 0.107718974 -0.08869375
000030 fd 96 96 bc 43 7d 62 bd 4d 53 8d bd 3f 8f 37 3e
       -0.018382544 -0.05529524 -0.06900654 0.17925738
000040 ab e7 b0 3d b7 39 2b 3d 4a c1 96 bc 4d 2b 03 3e
       0.08637937 0.041803088 -0.018402714 0.12809487
000050 7b 5a 5c 3b 92 9c 0b bd d2 be fa 3d 33 fd b2 3d
       0.0033623266 -0.034084864 0.12243427 0.087397
000060 89 29 97 bd 1c 2f d1 bc d9 a4 b2 bd 13 c2 1b bd
       -0.07380969 -0.025535159 -0.087228484 -0.03802688
000070 95 e9 8d bd c4 23 83 bd 41 27 24 3d cc b9 62 39
       -0.06929318 -0.06403306 0.040076498 0.00021622254
000080 50 4e 63 bc af ff d4 bc da 60 82 bd 4e 8b de bd
       -0.013873652 -0.026000826 -0.06366129 -0.10866414
000090 ea 2f c3 3c ff 62 dd 3d e3 a5 c8 bd 07 a0 ac bb
       0.023826558 0.10809898 -0.097972654 -0.0052681
0000a0 f7 fe 1f bd f0 ba 22 3e 61 27 23 3d 58 9c 38 3e
       -0.039061513 0.15891623 0.039832477 0.1802839
0000b0 85 aa 2a 3d 96 ed 35 3d e4 26 76 bd ce 3d 0a 3d
       0.041666526 0.044416033 -0.060095683 0.033750348
0000c0 f8 16 0d be 5b 78 97 bd 08 20 f2 bc 7e 43 e2 3d
       -0.13778293 -0.07396003 -0.02955629 0.11048029
0000d0 a0 4b c9 bc d2 5c 51 3e 95 42 91 3d 43 07 f4 3d
       -0.024572194 0.20445564 0.07092778 0.119154476
0000e0 a7 a3 cc bd 4e c5 12 bd 9a e9 32 3d 21 d6 71 3b
       -0.09992152 -0.035832696 0.04367981 0.0036901312
0000f0 c8 e7 24 3d b3 f6 c5 bc 55 6a ab 3c 6c f4 d4 3d
       0.040260106 -0.024165487 0.020924727 0.10398182
000100 a7 f7 3a 3a a3 d6 e6 bc 07 f2 ed bd 25 93 d0 3b
       0.000713224 -0.028178519 -0.11618429 0.0063651972
000110 3e ff 58 bd f4 af 5d 3d bb c5 bb ba 77 f9 a9 3d
       -0.052977793 0.05412288 -0.0014325896 0.08299535
000120 d9 3f 59 bd 1d 5a 2d bb dd 3a 8d bd 5b ca 39 3d
       -0.053039405 -0.0026451417 -0.06895993 0.045358997
000130 79 47 a1 3d 0c 7a 56 bd 15 00 4e 3d 0d 29 bb 3d
       0.078749605 -0.052362487 0.050293047 0.09138689
000140 80 38 25 3d 48 37 1e be 3b 0d 5a 3a 08 b5 f3 bc
       0.040337086 -0.15450776 0.00083180115 -0.029749408

fc3.weight f4 [10, 84]
000000 b2 c1 9b 3b f2 d6 96 bd c6 31 81 bd 6b 2a b3 3d
       0.004753315 -0.07365216 -0.06308322 0.08748325
000010 ad 36 1d 3d b8 69 8f 3d 9d 28 88 bd 35 75 89 3d
       0.03838222 0.07002586 -0.06648371 0.067118086
000020 f0 5f e1 3c c9 ac 37 3d 76 55 25 3c cb d2 5a 3e
       0.027511567 0.044842515 0.010091176 0.21369474
000030 ff 2a c5 bd 3a 03 ed 3c 64 5e 0b 3e 97 af b4 3d
       -0.096273415 0.028932203 0.13610226 0.088225536
000040 28 c1 6a 3d 6d 5f 5d 3d cb 9a d0 3d 5f f7 ca bd
       0.057313114 0.054046083 0.101857744 -0.099104635
000050 e8 bb 02 be 3f 72 cb 38 87 67 2e 3e 67 69 77 3d
       -0.12766993 9.701074e-05 0.1703168 0.060403254
000060 82 43 f2 3d 59 05 f2 3d 34 c3 b5 3d 3b 4a c4 3d
       0.11829282 0.11817426 0.08875123 0.09584471
000070 0f 5d 81 3d 1c f2 86 bd 4a 16 36 bd 03 08 92 bd
       0.06316578 -0.065891474 -0.04445485 -0.07130434
000080 d3 0c ed 3d 2d 18 42 bd ad 66 e7 3d bb 01 59 3e
       0.11574712 -0.047386337 0.11298881 0.21192066
000090 96 22 25 be c6 06 b1 bc 6e 3d aa bc f6 0d 27 3e
       -0.16126475 -0.021609675 -0.020781245 0.1631392
0000a0 96 94 32 bd 2a 41 d1 bc 91 e8 0e 3d 18 29 ef bc
       -0.043598734 -0.025543768 0.03488976 -0.0291944
0000b0 cb 9e ee bd 3e 85 c0 bd 9a 4d 69 bd 7d 5a 19 3e
       -0.11651381 -0.09400414 -0.056958772 0.14975925
0000c0 26 0a 79 bd 0c 85 ee bd 5f e7 48 3d 99 9c ba 3d
       -0.060800694 -0.116464704 0.049048778 0.091119
0000d0 0f a1 62 bd 20 1b e6 bd 58 f4 f2 3c f0 e5 db bd
       -0.05532938 -0.112356424 0.029657528 -0.107372165
0000e0 73 83 83 3d 19 d5 18 bd a7 0a 81 bd 39 78 5f 3d
       0.06421556 -0.0373126 -0.0630086 0.054558013
0000f0 8b 23 2a 3d d5 e7 d2 bd 73 0b d4 3d 9e aa 56 3d
       0.041537803 -0.10298125 0.10353746 0.052408807
000100 8e 92 fa bd c6 c2 e6 bd 1f 5c 1e bd 8e dd 28 3e
       -0.12234984 -0.11267619 -0.038662072 0.16490766
000110 32 41 91 bd 49 d6 dd bd 70 b3 cd 3d e0 70 4f 3d
       -0.07092513 -0.10831887 0.100439906 0.050644755
000120 f3 9d d7 3d 44 a4 a9 bd 95 01 6e bc 62 13 06 be
       0.10528173 -0.08283284 -0.014526744 -0.13093331
000130 d5 fd f1 3c 2c 50 42 bd 19 3e e9 3d e6 df e6 3d
       0.029539982 -0.04743974 0.11388797 0.11273174
000140 b1 b9 3e 3d 35 ff 2f bd de a9 c7 bd 5c ad 3f 3c
       0.046563808 -0.042967994 -0.097491965 0.011699047
000150 2d 1d 3c be 57 e4 ad 3b ec 68 f2 3d d8 d4 d7 bd
       -0.18370505 0.0053067612 0.118364185 -0.105386436
000160 8b 83 90 3d 48 d9 86 3d aa bb 3f bd 32 30 2a bd
       0.0705634 0.06584412 -0.04680983 -0.04154987
000170 21 e7 43 3e d9 e1 c4 bc ae 26 56 be b4 8a 2b bc
       0.19131137 -0.024033474 -0.20913193 -0.010470081
000180 73 91 26 be f6 8d 70 3b 36 11 14 bd 91 6a 3f be
       -0.16266422 0.003670571 -0.036149226 -0.18692996
000190 63 e9 f5 bd 4f 3b 8c 3d 00 e7 0d bd 16 d2 55 be
       -0.120074056 0.0684725 -0.034644127 -0.20880923
0001a0 21 85 e0 bd 8b 3a a3 bd bc e1 ce bd fb 43 9d bc
       -0.10962892 -0.079701506 -0.10101649 -0.019197455
0001b0 72 63 f6 3d 9b e9 3f 3e a7 54 86 bd a0 71 14 3d
       0.120306864 0.18741457 -0.06559115 0.036241174
0001c0 61 0c f8 3d 28 a7 fd 3d 28 f7 b0 3d b4 7d 97 3d
       0.12111736 0.12385398 0.08640891 0.07397023
0001d0 d0 c4 30 3e 14 f6 64 bd 3e 8b 87 bc e1 a1 1a 3e
       0.17262578 -0.05589874 -0.016545888 0.15100814
0001e0 9e 49 f3 3d 28 3d 99 3c af 3e 23 3e 24 f3 bd bd
       0.11879276 0.01870592 0.1594188 -0.09274891
0001f0 f3 c7 cc ba 0e 42 ae bd 2d 51 96 3d 69 8a b9 bd
       -0.0015623554 -0.08508693 0.07339702 -0.09059603
000200 f0 c1 ba 3c 36 57 30 3e 4d f4 c2 3d 3a 5b ee 3d
       0.022797555 0.17220768 0.09519253 0.11638494
000210 d6 c7 8e 3d 77 6c 64 3e c5 e0 5a be ef 0d a6 bd
       0.069717094 0.22307001 -0.21374805 -0.08108126
000220 9b aa da 3c dc 57 e9 bd 11 05 23 be e7 70 1f bc
       0.02669268 -0.11393711 -0.15919901 -0.009731508
000230 1d 8d ae 3d 06 f7 8d bd 5a 4b 1b bd 14 04 cd bd
       0.08523009 -0.069318816 -0.037913658 -0.100105435
000240 5c 4b ba bd 56 0c 84 bd 4e 62 b2 bd 7c 0d 59 be
       -0.09096405 -0.064476654 -0.087101564 -0.2119655
000250 4a 57 a8 bd 39 82 57 3e 30 df 51 3e c0 2f 59 3d
       -0.08219774 0.2104577 0.20495296 0.053024054
000260 76 44 32 be 36 f7 82 be 18 8f e1 bd c0 33 73 bd
       -0.17408928 -0.25579232 -0.11013621 -0.059375525
000270 a8 8b 05 3e 94 d7 02 3e c9 0c da 3d 13 f4 26 bd
       0.13041556 0.12777549 0.1064697 -0.04076011
000280 98 fa 6d bd a0 d5 ea bc 18 cc 14 3e f5 9b 96 3d
       -0.058100313 -0.028666317 0.1453098 0.07353965
000290 8e 15 a3 3c 1f bc e0 bd 7d 69 d9 bd 79 de a2 bd
       0.019907739 -0.10973381 -0.106158234 -0.079525895
0002a0 e2 d9 e3 3d db 2c f8 3b 78 bc 12 3e f1 f2 0a 3d
       0.11125542 0.0075737066 0.14329708 0.033923093
0002b0 7c ca e1 3d 2b c6 ef bc 92 43 3c 3d 89 f8 f6 3d
       0.11024949 -0.029269299 0.045962878 0.12059123
0002c0 80 3a ac be a2 2b ae bd c0 27 54 bd cd 0a 92 bd
       -0.33638382 -0.08504416 -0.05179572 -0.07130966
0002d0 c5 30 82 3d ba d0 67 3d 0d 20 3f bd 5f 86 82 3e
       0.06356958 0.05659554 -0.046661425 0.25493142
0002e0 56 6e b6 bc ef 96 1e 3e 34 a0 33 3d 4f c9 04 bd
       -0.02226941 0.15487264 0.043853953 -0.032418545
0002f0 ad 98 60 bd 27 60 85 3d ef bd 01 3e 68 d7 2c bd
       -0.054833103 0.0651248 0.1267011 -0.042197615
000300 54 78 a3 3c e9 9f c3 3d dc 12 30 bd b2 4b 81 bd
       0.019954838 0.09551985 -0.042986736 -0.06313266
000310 b6 c0 3b be ad 66 5c bd e9 d3 59 bd 86 4b a9 bd
       -0.18335232 -0.053808857 -0.05318061 -0.08266358
000320 51 c9 17 bd db c1 86 3d 0f d1 e8 3d 1b 13 5c 3d
       -0.037057225 0.06579944 0.11368 0.053729158
000330 26 98 9c 3d ca f8 2d 3e c3 18 91 bd 88 c2 ff bd
       0.076462075 0.16989437 -0.07084801 -0.12488276
000340 76 70 a9 bd 31 df 6e 3d 2e ae ab 3c 75 b7 86 3d
       -0.08273403 0.05831832 0.020957079 0.065779604
000350 9c e9 af 3c 4a 09 c1 bd 42 9c d4 ba 3a 79 84 3d
       0.021473698 -0.094256 -0.0016220885 0.06468435
000360 9f 87 53 bd 95 ad f5 ba 2a 52 24 bd f2 78 12 3e
       -0.05164301 -0.0018743748 -0.04011742 0.1430395
000370 d5 7d d6 bd 1e 12 cd 3d b4 29 18 bc ff 1a 40 3e
       -0.10473219 0.10013221 -0.009287287 0.18760298
000380 25 38 af 3d 06 75 84 3d 74 d8 a3 bd 4e e2 db 3d
       0.085556306 0.06467633 -0.080002695 0.107365236
000390 52 37 7d bd b0 21 b5 bd 66 6e e1 3d 7c 9a 89 3e
       -0.061820336 -0.08844316 0.11007385 0.26875675
0003a0 a3 11 3d bd 29 bf 8d bd 1e d1 db 3b a1 12 4f 3d
       -0.046159398 -0.069212265 0.0067082783 0.050554875
0003b0 c2 68 eb 3d ad 8a ee bc 00 ae c2 bd 8c 8d 94 bd
       0.1149459 -0.02911886 -0.09505844 -0.072535604
0003c0 94 cb 0e bc 95 8f bd bd ba fc fa 3c fb ab bf bd
       -0.008715529 -0.09255902 0.030638088 -0.093589745
0003d0 22 cc f6 bd c6 2c 94 3d 5d ba 44 bb 05 18 fa 3d
       -0.12050654 0.07235102 -0.0030018308 0.122116126
0003e0 0d 9b 6b 3d 2f b2 89 bd 4e 97 87 3d 89 02 86 3d
       0.057520915 -0.06723439 0.06620656 0.06543452
0003f0 7e 62 17 3d 1c bb e4 bc 4f 62 f8 bc 1e 71 93 bd
       0.036959164 -0.027921252 -0.030320315 -0.0719931

fc3.bias f4 [10]
000000 ad 88 19 be 48 c1 bd be 17 8b 54 3e ec 44 d5 3d
       -0.14993544 -0.37061524 0.20756184 0.104135364
000010 b8 9b d6 3e e0 2f 25 bd 4e d0 a4 3e 20 10 29 be
       0.4191568 -0.04032886 0.32190174 -0.16510057
000020 77 46 28 bd 9c 37 b3 be
       -0.041082826 -0.35003364
