Python/NLP/PE/0/data.pth (torch, 5413 bytes, 6 tensors)

linear1.weight f4 [8, 54]
-0.22835785 0.6456013 0.0213744 0.015146085 -0.30055517 -0.34210524 0.0673566 0.0035842136
-0.09617895 -0.07589241 0.24040103 0.61147916 0.25857967 0.59375286 0.46122628 0.43634292
0.109815136 -0.34205505 -0.39974773 0.36937523 -0.12372479 0.36468348 0.41578814 0.44696772
0.33559388 0.05377165 -0.16970706 0.6022425 -0.052605398 0.655682 -0.32910785 0.66234094
-0.22704305 0.08946663 0.6851425 0.5751306 -0.09880121 -0.106918335 0.26988184 0.15134019
-0.12157625 -0.33984673 0.6648026 0.39534098 0.56061226 0.7787466 -0.25109652 -0.11855459
0.0851961 -0.36880535 0.55506843 -0.13941619 0.1206938 0.10804825 0.2739937 0.3687985
0.54754764 -0.33024362 0.10570318 -0.47326478 0.52448833 0.41384214 0.76439327 0.22903723
-0.20018858 -0.33792272 0.61081547 -0.088808134 0.2707486 -0.19331172 -0.15863504 -0.47346985
0.3926867 -0.41934887 0.3805272 -0.4105354 -0.40748504 -0.5461238 0.16015838 -0.15879571
0.68112963 0.50828236 0.3605401 0.13513686 -0.4078736 -0.13820867 -0.077131905 0.5820448
0.35161972 -0.24258426 0.488353 0.7967683 0.37155363 0.41376546 -0.5278356 0.38150722
0.02066737 0.4556641 0.27926883 0.5179055 0.8344928 0.49588096 0.2670581 0.64414173
-0.17922918 0.36855388 0.2773526 0.46236414 -0.16800757 0.6892115 -0.16325913 0.024038844
0.5527697 -0.4224366 0.33115923 0.011672991 0.29010227 -0.001924938 0.26026976 -0.21019743
0.79299873 -0.14087749 0.4595506 -0.180714 0.311826 -0.42225713 0.887607 0.47918382
-0.03239363 0.494795 0.41923517 0.2187721 -0.35195342 0.1875027 0.8637691 0.90783775
0.63414675 0.7871582 -0.45127472 -0.10637603 -0.1581208 -0.27665928 0.861486 -0.1841148
0.6943259 0.09712466 0.14014648 0.23566003 -0.4000618 0.8666717 -0.21506639 0.6246361
-0.18362378 0.75641036 -0.80229795 -0.15674676 0.5674115 1.0194104 -0.28865078 0.7244826
0.31948534 0.4286416 0.64580107 0.6277791 -0.053695146 0.22874366 0.17145923 -0.18037446
-0.16925398 -0.111147515 -0.07390284 -0.10259658 0.28298956 0.4806967 -0.033783913 0.49822283
0.18855232 0.4324819 0.5221591 -0.18303841 -0.4175723 0.64745766 0.52871543 0.6809275
0.52621865 0.4371728 0.29274702 0.36116832 -0.35414097 0.4653974 -0.10810893 0.48396787
-0.1590348 0.5712464 0.21096246 -0.24066572 0.18117084 0.3492381 -0.26436785 -0.017189426
0.024423808 -0.113791555 -0.15343568 -0.6028809 0.45432264 0.13503116 0.29654476 0.2619584
0.7317056 0.327173 0.11844795 -0.568104 0.49942824 -0.39951214 -0.21367389 0.20028555
0.107102714 -0.112205766 0.09777163 0.10426415 -0.12803872 -0.082309574 -0.073209524 0.023532324
-0.11799948 0.030495612 -0.08545036 0.03862493 0.12534857 -0.028512985 -0.11355711 -0.08926851
-0.103933014 -0.12371959 -0.11945125 -0.017190058 -0.04917736 0.088741794 -0.11758962 0.115055755
0.031236956 -0.06720392 0.026184123 0.06538345 0.06995005 0.11479653 0.10386032 0.020820031
0.087779805 -0.070356555 0.023471149 -0.10625235 -0.1276668 0.04348858 0.05649681 0.024931159
00000000: a4d6 69be 2046 253f 5e19 af3c 4927 783c
00000010: 5ee2 99be 6b28 afbe 42f2 893d 20e5 6a3b
00000020: 78f9 c4bd 7b6d 9bbd b02b 763e e689 1c3f
00000030: 8e64 843e 3000 183f da25 ec3e 5768 df3e
00000040: c2e6 e03d d721 afbe bcab ccbe c01e bd3e
00000050: 6c63 fdbd cbb7 ba3e 2fe2 d43e f4d8 e43e
00000060: f6d2 ab3e a93f 5c3d b0c7 2dbe 912c 1a3f
00000070: c278 57bd c7da 273f d380 a8be 2d8f 293f
00000080: f97d 68be 483a b73d 8065 2f3f c23b 133f
00000090: 4a58 cabd 00f8 dabd f42d 8a3e ecf8 1a3e
000000a0: f8fc f8bd 6400 aebe 8130 2a3f 226a ca3e
000000b0: 4984 0f3f f05b 473f b98f 80be c0cc f2bd
000000c0: 4b7b ae3d 0ed4 bcbe f718 0e3f 1ec3 0ebe
000000d0: 502e f73d 6748 dd3d e748 8c3e 28d3 bc3e
000000e0: 152c 0c3f b115 a9be e97a d83d c34f f2be
000000f0: de44 063f 1ee3 d33e 47af 433f bc88 6a3e
00000100: 3cfe 4cbe 3504 adbe 675e 1c3f 0ae1 b5bd
00000110: 8f9f 8a3e 82f3 45be 3971 22be a46a f2be
00000120: 3b0e c93e e5b4 d6be 76d4 c23e b231 d2be
00000130: e1a1 d0be c5ce 0bbf 8f00 243e 589b 22be
00000140: 835e 2e3f cb1e 023f b698 b83e 5161 0a3e
00000150: cfd4 d0be 9386 0dbe 55f7 9dbd e300 153f
00000160: 8007 b43e 0268 78be 6809 fa3e 02f9 4b3f
00000170: 473c be3e 11d9 d33e 3c20 07bf ea54 c33e
00000180: 9e4e a93c ce4c e93e 53fc 8e3e 7495 043f
00000190: 52a1 553f 1ce4 fd3e d7bb 883e 79e6 243f
000001a0: db87 37be 18b3 bc3e 2901 8e3e feba ec3e
000001b0: 2d0a 2cbe 2a70 303f 672d 27be 1ced c43c
000001c0: 5182 0d3f 9c49 d8be b48d a93e 1340 3f3c
000001d0: 4988 943e 344e fcba 1442 853e ff3d 57be
000001e0: f701 4b3f 3042 10be 374a eb3e 170d 39be
000001f0: a8a7 9f3e 1632 d8be 363a 633f 9557 f53e
00000200: 2faf 04bd c555 fd3e fea5 d63e cb05 603e
00000210: 3d33 b4be b500 403e f91f 5d3f 0e68 683f
00000220: 7157 223f 3383 493f 7b0d e7be addb d9bd
00000230: 6bea 21be 49a6 8dbe 598a 5c3f 9788 3cbe
00000240: 58bf 313f 4be9 c63d 8f82 0f3e dd50 713e
00000250: e6d4 ccbe 32de 5d3f 5d3a 5cbe 27e8 1f3f
00000260: df07 3cbe 1ca4 413f 6663 4dbf 3982 20be
00000270: e141 113f 0a7c 823f 09ca 93be b177 393f
00000280: 9593 a33e e976 db3e 3853 253f 22b6 203f
00000290: 71ef 5bbd c73b 6a3e 0293 2f3e 15b4 38be
000002a0: ea50 2dbe 4fa1 e3bd 5f5a 97bd 281e d2bd
000002b0: 02e4 903e e11d f63e 0061 0abd 1017 ff3e
000002c0: dc13 413e 456e dd3e 38ac 053f 6c6e 3bbe
000002d0: 09cc d5be c9bf 253f e559 073f 4451 2e3f
000002e0: 44b6 063f 1dd5 df3e f0e2 953e 0eeb b83e
000002f0: f751 b5be 9148 ee3e 3768 ddbd a3ca f73e
00000300: 05da 22be 343d 123f 8b06 583e 1371 76be
00000310: d984 393e 56cf b23e 395b 87be d7d0 8cbc
00000320: 7014 c83c 8c0b e9bd 3e1e 1dbe 6756 1abf
00000330: fa9c e83e 9c45 0a3e b7d4 973e 691f 863e
00000340: 0f51 3b3f 3883 a73e d794 f23d 446f 11bf
00000350: 0fb5 ff3e db8c ccbe 54cd 5abe a817 4d3e
00000360: ab58 db3d 23cc e5bd 7e3c c83d 7188 d53d
00000370: 951c 03be ec91 a8bd e0ee 95bd dcc6 c03c
00000380: b6a9 f1bd efd1 f93c 9900 afbd 2d35 1e3d
00000390: 605b 003e 1094 e9bc a190 e8bd 69d2 b6bd
000003a0: d5da d4bd b260 fdbd dba2 f4bd 2ad2 8cbc
000003b0: 336e 49bd 42be b53d d4d2 f0bd 5aa2 eb3d
000003c0: a5e4 ff3c 35a2 89bd 1680 d63c c2e7 853d
000003d0: f941 8f3d 711a eb3d b8b4 d43d c58e aa3c
000003e0: e6c5 b33d 1917 90bd 9146 c03c d59a d9bd
000003f0: 16bb 02be 1521 323d 3369 673d 6e3c cc3c

linear1.bias f4 [8]
0.34205455 0.47330627 0.42223072 1.0048275 -0.15301251 0.43555796 0.40315184 0.77583754
00000000: c621 af3e 3355 f23e a02e d83e 309e 803f
00000010: 50af 1cbe 7401 df3e eb69 ce3e 4a9d 463f

linear2.weight f4 [8, 8]
0.78108186 0.01719101 -0.20707308 1.1051854 -0.18810934 0.14024238 -0.8631757 1.2635937
0.9603806 0.8484698 -0.61935014 0.60333776 -0.109550446 1.060677 0.8148743 -0.26878938
-0.7303569 -0.4940652 -0.8711186 1.2627498 -0.27656406 0.00958897 0.54602605 0.9658785
0.28779018 1.2935083 0.8920647 0.050143093 -0.14142741 1.1473701 0.47139278 -0.46665198
-0.044688597 -0.037932247 -0.04676252 0.2765153 -0.3228447 -0.16307846 -0.31725487 -0.18393032
0.66688466 -0.84856254 -0.010756969 0.66169775 -0.08839277 -0.4523749 -0.91333133 0.71451133
-0.12889425 0.79344654 0.69355285 0.11016248 -0.33703998 0.93228495 -1.4776715 0.7642023
1.2853714 -0.32773465 0.7892422 0.43319055 -0.13666515 -0.5286801 -0.5479581 1.1162747
00000000: fbf4 473f 29d4 8c3c f70a 54be b776 8d3f
00000010: bc9f 40be b39b 0f3e 15f9 5cbf 70bd a13f
00000020: 81db 753f 5135 593f bb8d 1ebf 5874 1a3f
00000030: fc5b e0bd 44c4 873f 9a9b 503f c39e 89be
00000040: abf8 3abf 1df6 fcbe a101 5fbf c9a1 a13f
00000050: ce99 8dbe 0e1b 1d3c 5dc8 0b3f d043 773f
00000060: 3c59 933e ae91 a53f 5a5e 643f d862 4d3d
00000070: 59d2 10be 06dd 923f 655a f13e 02ed eebe
00000080: 640b 37bd d85e 1bbd 0e8a 3fbd 6a93 8d3e
00000090: e74b a5be 0afe 26be 3b6f a2be 3b58 3cbe
000000a0: f4b8 2a3f 653b 59bf 003e 30bc 0665 293f
000000b0: 4507 b5bd af9d e7be 15d0 69bf 37ea 363f
000000c0: dbfc 03be 501f 4b3f ae8c 313f de9c e13d
000000d0: 8190 acbe 3aaa 6e3f 5724 bdbf c3a2 433f
000000e0: 0d87 a43f d6cc a7be c70b 4a3f 27cb dd3e
000000f0: f3f1 0bbe 9457 07bf fb46 0cbf 17e2 8e3f

linear2.bias f4 [8]
0.20238099 -0.8436517 1.3317835 -0.13763456 -0.31275794 -0.28562844 0.53077877 -0.5585399
00000000: f63c 4f3e 8ff9 57bf e277 aa3f 13f0 0cbe
00000010: cf21 a0be e43d 92be 1ee1 073f 79fc 0ebf

linear3.weight f4 [7, 8]
0.2339872 0.40350792 -0.53576267 -0.6575393 0.093352444 0.3482277 -1.2355108 0.009938243
0.3115708 0.03043591 -1.754305 -0.0041261613 0.036569387 -1.0217954 -0.10276017 0.35747296
0.6610493 -1.6258844 1.3111905 -1.4396156 -0.11724098 -1.5312178 -1.059943 -1.7053019
0.56487906 -1.4596448 -0.29211766 -1.1211638 -0.21662329 0.5021166 0.22523755 0.39216948
-0.7550373 -0.8311046 -1.7646706 0.56608164 0.18646596 -0.40691265 0.74869186 -0.7300825
-1.4598306 0.5650902 -1.2737191 0.7434664 -0.29566693 -0.24962255 -0.3440213 -1.1009734
0.48898894 0.060247876 -0.24545959 -0.24457718 0.0930406 -1.3160625 0.37892708 -1.4831979
00000000: 579a 6f3e 9798 ce3e be27 09bf 7f54 28bf
00000010: 912f bf3d e74a b23e 3825 9ebf 03d4 223c
00000020: 3586 9f3e bb54 f93c 118d e0bf c034 87bb
00000030: c8c9 153d 31ca 82bf ed73 d2bd b206 b73e
00000040: 873a 293f fb1c d0bf 17d5 a73f 5345 b8bf
00000050: 0a1c f0bd f2fe c3bf 36ac 87bf 5547 dabf
00000060: ea9b 103f a4d5 babf 7290 95be 4c82 8fbf
00000070: 7fd2 5dbe b78a 003f aca4 663e 70ca c83e
00000080: 204a 41bf 45c3 54bf bae0 e1bf baea 103f
00000090: eff0 3e3e db56 d0be 45aa 3f3f b0e6 3abf
000000a0: bbdb babf c0a9 103f 3a09 a3bf d053 3e3f
000000b0: a861 97be 0e9d 7fbe 8f23 b0be b2ec 8cbf
000000c0: c25c fa3e 7ac6 763d c259 7bbe 7172 7abe
000000d0: 128c be3d bc74 a8bf bb02 c23e 6ed9 bdbf

linear3.bias f4 [7]
-0.18013345 -0.32117802 0.82336766 0.06829246 0.015724977 0.4280429 -0.012405189
00000000: e774 38be 7271 a4be 39c8 523f ebdc 8b3d
00000010: abd1 803c 7028 db3e 223f 4bbc
